#loc = loc("/home/zeus/miniconda3/envs/cloudspace/lib/python3.12/site-packages/vllm_omni/model_executor/models/qwen3_tts/tokenizer_12hz/modeling_qwen3_tts_tokenizer_v2.py":633:0)
#loc30 = loc("x_ptr"(#loc))
#loc31 = loc("exp_alpha_ptr"(#loc))
#loc32 = loc("inv_beta_ptr"(#loc))
#loc33 = loc("out_ptr"(#loc))
#loc34 = loc("stride_b"(#loc))
#loc35 = loc("stride_c"(#loc))
#loc36 = loc("t_len"(#loc))
module {
  tt.func public @_kernel(%x_ptr: !tt.ptr<f32> {tt.divisibility = 16 : i32} loc("x_ptr"(#loc)), %exp_alpha_ptr: !tt.ptr<f32> {tt.divisibility = 16 : i32} loc("exp_alpha_ptr"(#loc)), %inv_beta_ptr: !tt.ptr<f32> {tt.divisibility = 16 : i32} loc("inv_beta_ptr"(#loc)), %out_ptr: !tt.ptr<f32> {tt.divisibility = 16 : i32} loc("out_ptr"(#loc)), %stride_b: i32 {tt.divisibility = 16 : i32} loc("stride_b"(#loc)), %stride_c: i32 {tt.divisibility = 16 : i32} loc("stride_c"(#loc)), %t_len: i32 {tt.divisibility = 16 : i32} loc("t_len"(#loc))) attributes {noinline = false} {
    %bid = tt.get_program_id x : i32 loc(#loc37)
    %cid = tt.get_program_id y : i32 loc(#loc38)
    %t_off = tt.get_program_id z : i32 loc(#loc39)
    %t_off_0 = arith.constant 2048 : i32 loc(#loc40)
    %t_off_1 = arith.constant 2048 : i32 loc(#loc40)
    %t_off_2 = arith.extsi %t_off : i32 to i64 loc(#loc40)
    %t_off_3 = arith.extsi %t_off_1 : i32 to i64 loc(#loc40)
    %t_off_4 = arith.muli %t_off_2, %t_off_3 : i64 loc(#loc40)
    %t_off_5 = arith.constant 2147483647 : i64 loc(#loc40)
    %t_off_6 = arith.constant -2147483648 : i64 loc(#loc40)
    %t_off_7 = arith.cmpi sle, %t_off_4, %t_off_5 : i64 loc(#loc40)
    %t_off_8 = arith.cmpi sge, %t_off_4, %t_off_6 : i64 loc(#loc40)
    %t_off_9 = arith.andi %t_off_7, %t_off_8 : i1 loc(#loc40)
    %t_off_10 = arith.muli %t_off, %t_off_1 : i32 loc(#loc40)
    %t_off_11 = tt.make_range {end = 2048 : i32, start = 0 : i32} : tensor<2048xi32> loc(#loc41)
    %t_off_12 = tt.splat %t_off_10 : i32 -> tensor<2048xi32> loc(#loc42)
    %t_off_13 = arith.extsi %t_off_12 : tensor<2048xi32> to tensor<2048xi64> loc(#loc42)
    %t_off_14 = arith.extsi %t_off_11 : tensor<2048xi32> to tensor<2048xi64> loc(#loc42)
    %t_off_15 = arith.addi %t_off_13, %t_off_14 : tensor<2048xi64> loc(#loc42)
    %t_off_16 = arith.constant 2147483647 : i64 loc(#loc42)
    %t_off_17 = arith.constant -2147483648 : i64 loc(#loc42)
    %t_off_18 = arith.constant dense<2147483647> : tensor<2048xi64> loc(#loc42)
    %t_off_19 = arith.cmpi sle, %t_off_15, %t_off_18 : tensor<2048xi64> loc(#loc42)
    %t_off_20 = arith.constant dense<-2147483648> : tensor<2048xi64> loc(#loc42)
    %t_off_21 = arith.cmpi sge, %t_off_15, %t_off_20 : tensor<2048xi64> loc(#loc42)
    %t_off_22 = arith.andi %t_off_19, %t_off_21 : tensor<2048xi1> loc(#loc42)
    %t_off_23 = arith.addi %t_off_12, %t_off_11 : tensor<2048xi32> loc(#loc42)
    %mask = tt.splat %t_len : i32 -> tensor<2048xi32> loc(#loc43)
    %mask_24 = arith.cmpi slt, %t_off_23, %mask : tensor<2048xi32> loc(#loc43)
    %x = arith.extsi %bid : i32 to i64 loc(#loc44)
    %x_25 = arith.extsi %stride_b : i32 to i64 loc(#loc44)
    %x_26 = arith.muli %x, %x_25 : i64 loc(#loc44)
    %x_27 = arith.constant 2147483647 : i64 loc(#loc44)
    %x_28 = arith.constant -2147483648 : i64 loc(#loc44)
    %x_29 = arith.cmpi sle, %x_26, %x_27 : i64 loc(#loc44)
    %x_30 = arith.cmpi sge, %x_26, %x_28 : i64 loc(#loc44)
    %x_31 = arith.andi %x_29, %x_30 : i1 loc(#loc44)
    %x_32 = arith.muli %bid, %stride_b : i32 loc(#loc44)
    %x_33 = tt.addptr %x_ptr, %x_32 : !tt.ptr<f32>, i32 loc(#loc45)
    %x_34 = arith.extsi %cid : i32 to i64 loc(#loc46)
    %x_35 = arith.extsi %stride_c : i32 to i64 loc(#loc46)
    %x_36 = arith.muli %x_34, %x_35 : i64 loc(#loc46)
    %x_37 = arith.constant 2147483647 : i64 loc(#loc46)
    %x_38 = arith.constant -2147483648 : i64 loc(#loc46)
    %x_39 = arith.cmpi sle, %x_36, %x_37 : i64 loc(#loc46)
    %x_40 = arith.cmpi sge, %x_36, %x_38 : i64 loc(#loc46)
    %x_41 = arith.andi %x_39, %x_40 : i1 loc(#loc46)
    %x_42 = arith.muli %cid, %stride_c : i32 loc(#loc46)
    %x_43 = tt.addptr %x_33, %x_42 : !tt.ptr<f32>, i32 loc(#loc47)
    %x_44 = tt.splat %x_43 : !tt.ptr<f32> -> tensor<2048x!tt.ptr<f32>> loc(#loc48)
    %x_45 = tt.addptr %x_44, %t_off_23 : tensor<2048x!tt.ptr<f32>>, tensor<2048xi32> loc(#loc48)
    %x_46 = arith.constant 0.000000e+00 : f32 loc(#loc49)
    %x_47 = arith.constant dense<0.000000e+00> : tensor<2048xf32> loc(#loc49)
    %x_48 = tt.load %x_45, %mask_24, %x_47 : tensor<2048x!tt.ptr<f32>> loc(#loc49)
    %ea = tt.addptr %exp_alpha_ptr, %cid : !tt.ptr<f32>, i32 loc(#loc50)
    %ea_49 = tt.load %ea : !tt.ptr<f32> loc(#loc51)
    %ib = tt.addptr %inv_beta_ptr, %cid : !tt.ptr<f32>, i32 loc(#loc52)
    %ib_50 = tt.load %ib : !tt.ptr<f32> loc(#loc53)
    %sin_val = tt.splat %ea_49 : f32 -> tensor<2048xf32> loc(#loc54)
    %sin_val_51 = arith.mulf %x_48, %sin_val : tensor<2048xf32> loc(#loc54)
    %sin_val_52 = math.sin %sin_val_51 : tensor<2048xf32> loc(#loc55)
    %result = tt.splat %ib_50 : f32 -> tensor<2048xf32> loc(#loc56)
    %result_53 = arith.mulf %result, %sin_val_52 : tensor<2048xf32> loc(#loc56)
    %result_54 = arith.mulf %result_53, %sin_val_52 : tensor<2048xf32> loc(#loc57)
    %result_55 = arith.addf %x_48, %result_54 : tensor<2048xf32> loc(#loc58)
    %0 = arith.extsi %bid : i32 to i64 loc(#loc23)
    %1 = arith.extsi %stride_b : i32 to i64 loc(#loc23)
    %2 = arith.muli %0, %1 : i64 loc(#loc23)
    %c2147483647_i64 = arith.constant 2147483647 : i64 loc(#loc23)
    %c-2147483648_i64 = arith.constant -2147483648 : i64 loc(#loc23)
    %3 = arith.cmpi sle, %2, %c2147483647_i64 : i64 loc(#loc23)
    %4 = arith.cmpi sge, %2, %c-2147483648_i64 : i64 loc(#loc23)
    %5 = arith.andi %3, %4 : i1 loc(#loc23)
    %6 = arith.muli %bid, %stride_b : i32 loc(#loc23)
    %7 = tt.addptr %out_ptr, %6 : !tt.ptr<f32>, i32 loc(#loc24)
    %8 = arith.extsi %cid : i32 to i64 loc(#loc25)
    %9 = arith.extsi %stride_c : i32 to i64 loc(#loc25)
    %10 = arith.muli %8, %9 : i64 loc(#loc25)
    %c2147483647_i64_56 = arith.constant 2147483647 : i64 loc(#loc25)
    %c-2147483648_i64_57 = arith.constant -2147483648 : i64 loc(#loc25)
    %11 = arith.cmpi sle, %10, %c2147483647_i64_56 : i64 loc(#loc25)
    %12 = arith.cmpi sge, %10, %c-2147483648_i64_57 : i64 loc(#loc25)
    %13 = arith.andi %11, %12 : i1 loc(#loc25)
    %14 = arith.muli %cid, %stride_c : i32 loc(#loc25)
    %15 = tt.addptr %7, %14 : !tt.ptr<f32>, i32 loc(#loc26)
    %16 = tt.splat %15 : !tt.ptr<f32> -> tensor<2048x!tt.ptr<f32>> loc(#loc27)
    %17 = tt.addptr %16, %t_off_23 : tensor<2048x!tt.ptr<f32>>, tensor<2048xi32> loc(#loc27)
    tt.store %17, %result_55, %mask_24 : tensor<2048x!tt.ptr<f32>> loc(#loc28)
    tt.return loc(#loc29)
  } loc(#loc)
} loc(#loc)
#loc1 = loc("/home/zeus/miniconda3/envs/cloudspace/lib/python3.12/site-packages/vllm_omni/model_executor/models/qwen3_tts/tokenizer_12hz/modeling_qwen3_tts_tokenizer_v2.py":644:24)
#loc2 = loc("/home/zeus/miniconda3/envs/cloudspace/lib/python3.12/site-packages/vllm_omni/model_executor/models/qwen3_tts/tokenizer_12hz/modeling_qwen3_tts_tokenizer_v2.py":645:24)
#loc3 = loc("/home/zeus/miniconda3/envs/cloudspace/lib/python3.12/site-packages/vllm_omni/model_executor/models/qwen3_tts/tokenizer_12hz/modeling_qwen3_tts_tokenizer_v2.py":646:26)
#loc4 = loc("/home/zeus/miniconda3/envs/cloudspace/lib/python3.12/site-packages/vllm_omni/model_executor/models/qwen3_tts/tokenizer_12hz/modeling_qwen3_tts_tokenizer_v2.py":646:31)
#loc5 = loc("/home/zeus/miniconda3/envs/cloudspace/lib/python3.12/site-packages/vllm_omni/model_executor/models/qwen3_tts/tokenizer_12hz/modeling_qwen3_tts_tokenizer_v2.py":646:54)
#loc6 = loc("/home/zeus/miniconda3/envs/cloudspace/lib/python3.12/site-packages/vllm_omni/model_executor/models/qwen3_tts/tokenizer_12hz/modeling_qwen3_tts_tokenizer_v2.py":646:41)
#loc7 = loc("/home/zeus/miniconda3/envs/cloudspace/lib/python3.12/site-packages/vllm_omni/model_executor/models/qwen3_tts/tokenizer_12hz/modeling_qwen3_tts_tokenizer_v2.py":647:19)
#loc8 = loc("/home/zeus/miniconda3/envs/cloudspace/lib/python3.12/site-packages/vllm_omni/model_executor/models/qwen3_tts/tokenizer_12hz/modeling_qwen3_tts_tokenizer_v2.py":649:30)
#loc9 = loc("/home/zeus/miniconda3/envs/cloudspace/lib/python3.12/site-packages/vllm_omni/model_executor/models/qwen3_tts/tokenizer_12hz/modeling_qwen3_tts_tokenizer_v2.py":649:24)
#loc10 = loc("/home/zeus/miniconda3/envs/cloudspace/lib/python3.12/site-packages/vllm_omni/model_executor/models/qwen3_tts/tokenizer_12hz/modeling_qwen3_tts_tokenizer_v2.py":649:47)
#loc11 = loc("/home/zeus/miniconda3/envs/cloudspace/lib/python3.12/site-packages/vllm_omni/model_executor/models/qwen3_tts/tokenizer_12hz/modeling_qwen3_tts_tokenizer_v2.py":649:41)
#loc12 = loc("/home/zeus/miniconda3/envs/cloudspace/lib/python3.12/site-packages/vllm_omni/model_executor/models/qwen3_tts/tokenizer_12hz/modeling_qwen3_tts_tokenizer_v2.py":649:58)
#loc13 = loc("/home/zeus/miniconda3/envs/cloudspace/lib/python3.12/site-packages/vllm_omni/model_executor/models/qwen3_tts/tokenizer_12hz/modeling_qwen3_tts_tokenizer_v2.py":649:16)
#loc14 = loc("/home/zeus/miniconda3/envs/cloudspace/lib/python3.12/site-packages/vllm_omni/model_executor/models/qwen3_tts/tokenizer_12hz/modeling_qwen3_tts_tokenizer_v2.py":650:33)
#loc15 = loc("/home/zeus/miniconda3/envs/cloudspace/lib/python3.12/site-packages/vllm_omni/model_executor/models/qwen3_tts/tokenizer_12hz/modeling_qwen3_tts_tokenizer_v2.py":650:17)
#loc16 = loc("/home/zeus/miniconda3/envs/cloudspace/lib/python3.12/site-packages/vllm_omni/model_executor/models/qwen3_tts/tokenizer_12hz/modeling_qwen3_tts_tokenizer_v2.py":651:32)
#loc17 = loc("/home/zeus/miniconda3/envs/cloudspace/lib/python3.12/site-packages/vllm_omni/model_executor/models/qwen3_tts/tokenizer_12hz/modeling_qwen3_tts_tokenizer_v2.py":651:17)
#loc18 = loc("/home/zeus/miniconda3/envs/cloudspace/lib/python3.12/site-packages/vllm_omni/model_executor/models/qwen3_tts/tokenizer_12hz/modeling_qwen3_tts_tokenizer_v2.py":652:25)
#loc19 = loc("/home/zeus/miniconda3/envs/cloudspace/lib/python3.12/site-packages/vllm_omni/model_executor/models/qwen3_tts/tokenizer_12hz/modeling_qwen3_tts_tokenizer_v2.py":652:21)
#loc20 = loc("/home/zeus/miniconda3/envs/cloudspace/lib/python3.12/site-packages/vllm_omni/model_executor/models/qwen3_tts/tokenizer_12hz/modeling_qwen3_tts_tokenizer_v2.py":653:22)
#loc21 = loc("/home/zeus/miniconda3/envs/cloudspace/lib/python3.12/site-packages/vllm_omni/model_executor/models/qwen3_tts/tokenizer_12hz/modeling_qwen3_tts_tokenizer_v2.py":653:32)
#loc22 = loc("/home/zeus/miniconda3/envs/cloudspace/lib/python3.12/site-packages/vllm_omni/model_executor/models/qwen3_tts/tokenizer_12hz/modeling_qwen3_tts_tokenizer_v2.py":653:17)
#loc23 = loc("/home/zeus/miniconda3/envs/cloudspace/lib/python3.12/site-packages/vllm_omni/model_executor/models/qwen3_tts/tokenizer_12hz/modeling_qwen3_tts_tokenizer_v2.py":655:29)
#loc24 = loc("/home/zeus/miniconda3/envs/cloudspace/lib/python3.12/site-packages/vllm_omni/model_executor/models/qwen3_tts/tokenizer_12hz/modeling_qwen3_tts_tokenizer_v2.py":655:23)
#loc25 = loc("/home/zeus/miniconda3/envs/cloudspace/lib/python3.12/site-packages/vllm_omni/model_executor/models/qwen3_tts/tokenizer_12hz/modeling_qwen3_tts_tokenizer_v2.py":655:46)
#loc26 = loc("/home/zeus/miniconda3/envs/cloudspace/lib/python3.12/site-packages/vllm_omni/model_executor/models/qwen3_tts/tokenizer_12hz/modeling_qwen3_tts_tokenizer_v2.py":655:40)
#loc27 = loc("/home/zeus/miniconda3/envs/cloudspace/lib/python3.12/site-packages/vllm_omni/model_executor/models/qwen3_tts/tokenizer_12hz/modeling_qwen3_tts_tokenizer_v2.py":655:57)
#loc28 = loc("/home/zeus/miniconda3/envs/cloudspace/lib/python3.12/site-packages/vllm_omni/model_executor/models/qwen3_tts/tokenizer_12hz/modeling_qwen3_tts_tokenizer_v2.py":655:64)
#loc29 = loc("/home/zeus/miniconda3/envs/cloudspace/lib/python3.12/site-packages/vllm_omni/model_executor/models/qwen3_tts/tokenizer_12hz/modeling_qwen3_tts_tokenizer_v2.py":655:4)
#loc37 = loc("bid"(#loc1))
#loc38 = loc("cid"(#loc2))
#loc39 = loc("t_off"(#loc3))
#loc40 = loc("t_off"(#loc4))
#loc41 = loc("t_off"(#loc5))
#loc42 = loc("t_off"(#loc6))
#loc43 = loc("mask"(#loc7))
#loc44 = loc("x"(#loc8))
#loc45 = loc("x"(#loc9))
#loc46 = loc("x"(#loc10))
#loc47 = loc("x"(#loc11))
#loc48 = loc("x"(#loc12))
#loc49 = loc("x"(#loc13))
#loc50 = loc("ea"(#loc14))
#loc51 = loc("ea"(#loc15))
#loc52 = loc("ib"(#loc16))
#loc53 = loc("ib"(#loc17))
#loc54 = loc("sin_val"(#loc18))
#loc55 = loc("sin_val"(#loc19))
#loc56 = loc("result"(#loc20))
#loc57 = loc("result"(#loc21))
#loc58 = loc("result"(#loc22))
