#loc = loc("/home/zeus/miniconda3/envs/cloudspace/lib/python3.12/site-packages/vllm_omni/model_executor/models/qwen3_tts/tokenizer_12hz/modeling_qwen3_tts_tokenizer_v2.py":633:0)
#loc29 = loc("x_ptr"(#loc))
#loc30 = loc("exp_alpha_ptr"(#loc))
#loc31 = loc("inv_beta_ptr"(#loc))
#loc32 = loc("out_ptr"(#loc))
#loc33 = loc("stride_b"(#loc))
#loc34 = loc("stride_c"(#loc))
#loc35 = loc("t_len"(#loc))
module {
  tt.func public @_kernel(%x_ptr: !tt.ptr<f32> {tt.divisibility = 16 : i32} loc("x_ptr"(#loc)), %exp_alpha_ptr: !tt.ptr<f32> {tt.divisibility = 16 : i32} loc("exp_alpha_ptr"(#loc)), %inv_beta_ptr: !tt.ptr<f32> {tt.divisibility = 16 : i32} loc("inv_beta_ptr"(#loc)), %out_ptr: !tt.ptr<f32> {tt.divisibility = 16 : i32} loc("out_ptr"(#loc)), %stride_b: i32 {tt.divisibility = 16 : i32} loc("stride_b"(#loc)), %stride_c: i32 {tt.divisibility = 16 : i32} loc("stride_c"(#loc)), %t_len: i32 {tt.divisibility = 16 : i32} loc("t_len"(#loc))) attributes {noinline = false} {
    %x = arith.constant dense<0.000000e+00> : tensor<1024xf32> loc(#loc36)
    %c1024_i32 = arith.constant 1024 : i32 loc(#loc2)
    %bid = tt.get_program_id x : i32 loc(#loc37)
    %cid = tt.get_program_id y : i32 loc(#loc38)
    %t_off = tt.get_program_id z : i32 loc(#loc39)
    %t_off_0 = arith.muli %t_off, %c1024_i32 : i32 loc(#loc40)
    %t_off_1 = tt.make_range {end = 1024 : i32, start = 0 : i32} : tensor<1024xi32> loc(#loc41)
    %t_off_2 = tt.splat %t_off_0 : i32 -> tensor<1024xi32> loc(#loc42)
    %t_off_3 = arith.addi %t_off_2, %t_off_1 : tensor<1024xi32> loc(#loc42)
    %mask = tt.splat %t_len : i32 -> tensor<1024xi32> loc(#loc43)
    %mask_4 = arith.cmpi slt, %t_off_3, %mask : tensor<1024xi32> loc(#loc43)
    %x_5 = arith.muli %bid, %stride_b : i32 loc(#loc44)
    %x_6 = tt.addptr %x_ptr, %x_5 : !tt.ptr<f32>, i32 loc(#loc45)
    %x_7 = arith.muli %cid, %stride_c : i32 loc(#loc46)
    %x_8 = tt.addptr %x_6, %x_7 : !tt.ptr<f32>, i32 loc(#loc47)
    %x_9 = tt.splat %x_8 : !tt.ptr<f32> -> tensor<1024x!tt.ptr<f32>> loc(#loc48)
    %x_10 = tt.addptr %x_9, %t_off_3 : tensor<1024x!tt.ptr<f32>>, tensor<1024xi32> loc(#loc48)
    %x_11 = tt.load %x_10, %mask_4, %x : tensor<1024x!tt.ptr<f32>> loc(#loc36)
    %ea = tt.addptr %exp_alpha_ptr, %cid : !tt.ptr<f32>, i32 loc(#loc49)
    %ea_12 = tt.load %ea : !tt.ptr<f32> loc(#loc50)
    %ib = tt.addptr %inv_beta_ptr, %cid : !tt.ptr<f32>, i32 loc(#loc51)
    %ib_13 = tt.load %ib : !tt.ptr<f32> loc(#loc52)
    %sin_val = tt.splat %ea_12 : f32 -> tensor<1024xf32> loc(#loc53)
    %sin_val_14 = arith.mulf %x_11, %sin_val : tensor<1024xf32> loc(#loc53)
    %sin_val_15 = math.sin %sin_val_14 : tensor<1024xf32> loc(#loc54)
    %result = tt.splat %ib_13 : f32 -> tensor<1024xf32> loc(#loc55)
    %result_16 = arith.mulf %result, %sin_val_15 : tensor<1024xf32> loc(#loc55)
    %result_17 = arith.mulf %result_16, %sin_val_15 : tensor<1024xf32> loc(#loc56)
    %result_18 = arith.addf %x_11, %result_17 : tensor<1024xf32> loc(#loc57)
    %0 = tt.addptr %out_ptr, %x_5 : !tt.ptr<f32>, i32 loc(#loc24)
    %1 = tt.addptr %0, %x_7 : !tt.ptr<f32>, i32 loc(#loc25)
    %2 = tt.splat %1 : !tt.ptr<f32> -> tensor<1024x!tt.ptr<f32>> loc(#loc26)
    %3 = tt.addptr %2, %t_off_3 : tensor<1024x!tt.ptr<f32>>, tensor<1024xi32> loc(#loc26)
    tt.store %3, %result_18, %mask_4 : tensor<1024x!tt.ptr<f32>> loc(#loc27)
    tt.return loc(#loc28)
  } loc(#loc)
} loc(#loc)
#loc1 = loc("/home/zeus/miniconda3/envs/cloudspace/lib/python3.12/site-packages/vllm_omni/model_executor/models/qwen3_tts/tokenizer_12hz/modeling_qwen3_tts_tokenizer_v2.py":649:16)
#loc2 = loc(unknown)
#loc3 = loc("/home/zeus/miniconda3/envs/cloudspace/lib/python3.12/site-packages/vllm_omni/model_executor/models/qwen3_tts/tokenizer_12hz/modeling_qwen3_tts_tokenizer_v2.py":644:24)
#loc4 = loc("/home/zeus/miniconda3/envs/cloudspace/lib/python3.12/site-packages/vllm_omni/model_executor/models/qwen3_tts/tokenizer_12hz/modeling_qwen3_tts_tokenizer_v2.py":645:24)
#loc5 = loc("/home/zeus/miniconda3/envs/cloudspace/lib/python3.12/site-packages/vllm_omni/model_executor/models/qwen3_tts/tokenizer_12hz/modeling_qwen3_tts_tokenizer_v2.py":646:26)
#loc6 = loc("/home/zeus/miniconda3/envs/cloudspace/lib/python3.12/site-packages/vllm_omni/model_executor/models/qwen3_tts/tokenizer_12hz/modeling_qwen3_tts_tokenizer_v2.py":646:31)
#loc7 = loc("/home/zeus/miniconda3/envs/cloudspace/lib/python3.12/site-packages/vllm_omni/model_executor/models/qwen3_tts/tokenizer_12hz/modeling_qwen3_tts_tokenizer_v2.py":646:54)
#loc8 = loc("/home/zeus/miniconda3/envs/cloudspace/lib/python3.12/site-packages/vllm_omni/model_executor/models/qwen3_tts/tokenizer_12hz/modeling_qwen3_tts_tokenizer_v2.py":646:41)
#loc9 = loc("/home/zeus/miniconda3/envs/cloudspace/lib/python3.12/site-packages/vllm_omni/model_executor/models/qwen3_tts/tokenizer_12hz/modeling_qwen3_tts_tokenizer_v2.py":647:19)
#loc10 = loc("/home/zeus/miniconda3/envs/cloudspace/lib/python3.12/site-packages/vllm_omni/model_executor/models/qwen3_tts/tokenizer_12hz/modeling_qwen3_tts_tokenizer_v2.py":649:30)
#loc11 = loc("/home/zeus/miniconda3/envs/cloudspace/lib/python3.12/site-packages/vllm_omni/model_executor/models/qwen3_tts/tokenizer_12hz/modeling_qwen3_tts_tokenizer_v2.py":649:24)
#loc12 = loc("/home/zeus/miniconda3/envs/cloudspace/lib/python3.12/site-packages/vllm_omni/model_executor/models/qwen3_tts/tokenizer_12hz/modeling_qwen3_tts_tokenizer_v2.py":649:47)
#loc13 = loc("/home/zeus/miniconda3/envs/cloudspace/lib/python3.12/site-packages/vllm_omni/model_executor/models/qwen3_tts/tokenizer_12hz/modeling_qwen3_tts_tokenizer_v2.py":649:41)
#loc14 = loc("/home/zeus/miniconda3/envs/cloudspace/lib/python3.12/site-packages/vllm_omni/model_executor/models/qwen3_tts/tokenizer_12hz/modeling_qwen3_tts_tokenizer_v2.py":649:58)
#loc15 = loc("/home/zeus/miniconda3/envs/cloudspace/lib/python3.12/site-packages/vllm_omni/model_executor/models/qwen3_tts/tokenizer_12hz/modeling_qwen3_tts_tokenizer_v2.py":650:33)
#loc16 = loc("/home/zeus/miniconda3/envs/cloudspace/lib/python3.12/site-packages/vllm_omni/model_executor/models/qwen3_tts/tokenizer_12hz/modeling_qwen3_tts_tokenizer_v2.py":650:17)
#loc17 = loc("/home/zeus/miniconda3/envs/cloudspace/lib/python3.12/site-packages/vllm_omni/model_executor/models/qwen3_tts/tokenizer_12hz/modeling_qwen3_tts_tokenizer_v2.py":651:32)
#loc18 = loc("/home/zeus/miniconda3/envs/cloudspace/lib/python3.12/site-packages/vllm_omni/model_executor/models/qwen3_tts/tokenizer_12hz/modeling_qwen3_tts_tokenizer_v2.py":651:17)
#loc19 = loc("/home/zeus/miniconda3/envs/cloudspace/lib/python3.12/site-packages/vllm_omni/model_executor/models/qwen3_tts/tokenizer_12hz/modeling_qwen3_tts_tokenizer_v2.py":652:25)
#loc20 = loc("/home/zeus/miniconda3/envs/cloudspace/lib/python3.12/site-packages/vllm_omni/model_executor/models/qwen3_tts/tokenizer_12hz/modeling_qwen3_tts_tokenizer_v2.py":652:21)
#loc21 = loc("/home/zeus/miniconda3/envs/cloudspace/lib/python3.12/site-packages/vllm_omni/model_executor/models/qwen3_tts/tokenizer_12hz/modeling_qwen3_tts_tokenizer_v2.py":653:22)
#loc22 = loc("/home/zeus/miniconda3/envs/cloudspace/lib/python3.12/site-packages/vllm_omni/model_executor/models/qwen3_tts/tokenizer_12hz/modeling_qwen3_tts_tokenizer_v2.py":653:32)
#loc23 = loc("/home/zeus/miniconda3/envs/cloudspace/lib/python3.12/site-packages/vllm_omni/model_executor/models/qwen3_tts/tokenizer_12hz/modeling_qwen3_tts_tokenizer_v2.py":653:17)
#loc24 = loc("/home/zeus/miniconda3/envs/cloudspace/lib/python3.12/site-packages/vllm_omni/model_executor/models/qwen3_tts/tokenizer_12hz/modeling_qwen3_tts_tokenizer_v2.py":655:23)
#loc25 = loc("/home/zeus/miniconda3/envs/cloudspace/lib/python3.12/site-packages/vllm_omni/model_executor/models/qwen3_tts/tokenizer_12hz/modeling_qwen3_tts_tokenizer_v2.py":655:40)
#loc26 = loc("/home/zeus/miniconda3/envs/cloudspace/lib/python3.12/site-packages/vllm_omni/model_executor/models/qwen3_tts/tokenizer_12hz/modeling_qwen3_tts_tokenizer_v2.py":655:57)
#loc27 = loc("/home/zeus/miniconda3/envs/cloudspace/lib/python3.12/site-packages/vllm_omni/model_executor/models/qwen3_tts/tokenizer_12hz/modeling_qwen3_tts_tokenizer_v2.py":655:64)
#loc28 = loc("/home/zeus/miniconda3/envs/cloudspace/lib/python3.12/site-packages/vllm_omni/model_executor/models/qwen3_tts/tokenizer_12hz/modeling_qwen3_tts_tokenizer_v2.py":655:4)
#loc36 = loc("x"(#loc1))
#loc37 = loc("bid"(#loc3))
#loc38 = loc("cid"(#loc4))
#loc39 = loc("t_off"(#loc5))
#loc40 = loc("t_off"(#loc6))
#loc41 = loc("t_off"(#loc7))
#loc42 = loc("t_off"(#loc8))
#loc43 = loc("mask"(#loc9))
#loc44 = loc("x"(#loc10))
#loc45 = loc("x"(#loc11))
#loc46 = loc("x"(#loc12))
#loc47 = loc("x"(#loc13))
#loc48 = loc("x"(#loc14))
#loc49 = loc("ea"(#loc15))
#loc50 = loc("ea"(#loc16))
#loc51 = loc("ib"(#loc17))
#loc52 = loc("ib"(#loc18))
#loc53 = loc("sin_val"(#loc19))
#loc54 = loc("sin_val"(#loc20))
#loc55 = loc("result"(#loc21))
#loc56 = loc("result"(#loc22))
#loc57 = loc("result"(#loc23))
